…
el_size=(3, 3), stride=(1, 1))\n","  (pool): MaxPool2d(kernel_size=2, stride=2, padding=0, dilation=1, ceil_mode=False)\n","  (dropout1): Dropout2d(p=0.25, inplace=False)\n","  (dropout2): Dropout2d(p=0.5, inplace=False)\n","  (fc1): Linear(in_features=9216, out_features=128, bias=True)\n","  (fc2): Linear(in_features=128, out_features=10, bias=True)\n",")\n","----------------------------------------------------------------\n","        Layer (type)               Output Shape         Param #\n","================================================================\n","            Conv2d-1           [-1, 32, 26, 26]             320\n","            Conv2d-2           [-1, 64, 24, 24]          18,496\n","         MaxPool2d-3           [-1, 64, 12, 12]               0\n","         Dropout2d-4           [-1, 64, 12, 12]               0\n","            Linear-5                  [-1, 128]       1,179,776\n","         Dropout2d-6                  [-1, 128]               0\n","            Linear-7                   [-1, 10]           1,290\n","================================================================\n","Total params: 1,199,882\n","Trainable params: 1,199,882\n","Non-trainable params: 0\n","----------------------------------------------------------------\n","Input size (MB): 0.00\n","Forward/backward pass size (MB): 0.59\n","Params size (MB): 4.58\n","Estimated Total Size (MB): 5.17\n","--------------------------------------
…
